PS C:\Users\abelj\Documents\Coding\Python\Digital-Stethoscope> python .\Testing\model_train.py
Running on cuda:0
----------------------------------------------------------------
        Layer (type)               Output Shape         Param #
================================================================
            Conv1d-1             [64, 256, 126]           6,656
              ReLU-2             [64, 256, 126]               0
       BatchNorm1d-3             [64, 256, 126]             512
         MaxPool1d-4              [64, 256, 62]               0
           Dropout-5              [64, 256, 62]               0
            Conv1d-6               [64, 64, 60]          81,984
              ReLU-7               [64, 64, 60]               0
         MaxPool1d-8               [64, 64, 20]               0
           Dropout-9               [64, 64, 20]               0
           Conv1d-10               [64, 16, 18]           5,136
             ReLU-11               [64, 16, 18]               0
        MaxPool1d-12                [64, 16, 6]               0
          Dropout-13                [64, 16, 6]               0
          Flatten-14                   [64, 96]               0
           Linear-15                    [64, 8]             776
             ReLU-16                    [64, 8]               0
           Linear-17                    [64, 3]              27
       LogSoftmax-18                    [64, 3]               0
================================================================
Total params: 95,091
Trainable params: 95,091
Non-trainable params: 0
----------------------------------------------------------------
Input size (MB): 0.16
Forward/backward pass size (MB): 68.18
Params size (MB): 0.36
Estimated Total Size (MB): 68.70
----------------------------------------------------------------
  0%|            
…
